ml_services/prediction_service/risk_model_9features.pth (torch, 14257 bytes, 5 tensors)

net.0.weight f4 [64, 9]
00000000: f7a2 2dbf 991c 4cbe 0bbb 72be 6872 65be
00000010: 341c 4abe 1d4e e53c a91e debe bf36 57be
00000020: 8728 50be 067e 0e3f bb02 aebe d456 813d
00000030: dd1d aebd ad10 abbe b533 903e 7249 993d
00000040: 3a45 d2be 784f 3c3e bf21 823e 2e67 89bd
00000050: 99af 34be bb63 e23e 4966 a2bc 28d9 9a3e
00000060: f0a7 e23d 68c8 36be cd1b c73b 4202 6abe
00000070: b1f6 3cbd aadc 16be 2f91 b7be ebc6 2fbc
00000080: 1331 0abf 513a 72be 5633 903e a9e4 9bbe
00000090: 5723 553e d556 373e 6878 d5bd d0c5 8e3e
000000a0: 133e 8cbe 97d7 093f 4514 6ebe 982f 8c3e
000000b0: e6ec 503e bb36 e4be 870e 8e3e ea44 5cbd
000000c0: 46b7 cfbe 37cd 583c eaef 3bbe a09c 733d
000000d0: b4f8 dcbd cbff 9f3e 7964 fe3e 43c0 0c3d
000000e0: fc60 7d3e 0b04 823e 2fb2 38be 1103 c43e
000000f0: 07b9 c33e d146 113e 6019 2b3d fafd 8e3e
00000100: 73a7 e1bd 7bfa b53e 4350 0b3e e894 c9bd
00000110: f654 743e f76c ac3e 9ea5 3c3e 0103 813e
00000120: 41a3 29bf 0346 a2bd 9ad3 2e3e ae31 b2bd
00000130: c64c c53d d5f1 96be e1aa 8cbe 4451 023e
00000140: f2b9 80be 8813 ba3e 4516 ee3c 34e3 87bc
00000150: f7a1 43bc 49b5 eb3d fed4 053f 1eeb 05be
00000160: f75c 933d f412 cf3e d3f8 143f 48db 723e
00000170: b9a9 6b3d 4954 973e a9cc a2be b700 053f
00000180: 56c7 f83c a176 fc3c 7c3f 843d 3d7f 023f
00000190: 7ab4 dd3a 54f2 373c cb79 da3e c565 78bc
000001a0: 5e28 6f3d 4f75 7b3e 0988 aabd 989a a43d
000001b0: 4276 f63e b515 a2ba 18ad c3bc 27f7 60bc
000001c0: 3131 a53e e725 69be 0553 e33e ccb3 253e
000001d0: 69b8 9c3e 0a17 41bf 2d2b b5bd e4c6 503c
000001e0: 4efe 9dbe daa7 f13c 771c ccbe 5e47 efbd
000001f0: 6dc8 07be b087 84be ec9a 23bf d97d 87be
00000200: 7d95 a2be 5e82 91be 2bd7 86bd 9d27 1abe
00000210: 79ed 9cbe 37ce d6bc 56b9 cc3c b485 3ebf
00000220: 9929 8a3e 9c02 5d3e 9410 8abe 67cf 1cbe
00000230: a142 903d 1c33 4b3d 48e8 ae3d c252 3d3e
00000240: 2a1d bdbe 6eeb 9cbe 90b1 91bd 599b aebe
00000250: d64e 3b3b be85 5f3e 2239 1ebc 87bf c0bd
00000260: e3ed 0abe 0026 303f ab7e 523e 6919 92be
00000270: 1e8a 7fbd e0f4 733d 7835 0dbd 02f6 1ebb
00000280: 57c6 363e fa0c 2ebe 63e0 49bf 9453 b2bd
00000290: bfc6 19be 91fd cdbe ec07 713e 94be e7be
000002a0: b0a9 b53b 2c01 a0bd d78c 30be 7c88 16bf
000002b0: 6305 79be c0ad 1bbd d527 f1be 23bf 4dbe
000002c0: ebce 01bf 72a1 b7bd 7ea3 613e cbea 97be
000002d0: e7ed acbe 19c6 d03e cc07 11be c486 24be
000002e0: e887 62be 886f e6be 8b64 84be 281e 99bd
000002f0: ecc7 1cbe df56 b2be 3281 253e 7893 9e3d
00000300: 15fb c9be 20a3 9b3c be86 e9be 12d2 423d
00000310: b326 bc3d 242e 8abe 30ab 1dbf 57a9 56be
00000320: fb3f 123e 1b3c d13d 6ea0 843e fd39 bcbe
00000330: b794 8dbc 25b8 c63d bdbd 0ebe ab74 013f
00000340: 81b5 fabd d5d5 16be bf06 bc3e 960f 96bc
00000350: 8ec7 173e 3eb9 c73d e57e 943d 3bab cbbd
00000360: 4bd9 803e 7cee 333e e7e7 593e f9b9 843e
00000370: 75ff 5bba bc47 dd3e 93cd 163e 342c d4be
00000380: 5a33 0abd a27e e73e db72 ef3d 558b 013e
00000390: 4ec4 933e 4292 e6bb c24d 873e e4a8 09be
000003a0: 897e 103d 7fcc 083e 5e87 063f 4630 61be
000003b0: 664a f2be 268f 10bd b96a e73d 213a 853e
000003c0: ffe5 2ebc 257d 9cbc 2b3f 0f3f 761e f1be
000003d0: 2837 4e3e aa7b 05be 3e77 b43d 5cf6 59be
000003e0: 4b98 bfbe 78b3 24be e298 16be d298 5cbe
000003f0: 453c 1c3f e781 9a3e b3c6 d0bc 530f f73d
-0.6782679 -0.19932784 -0.23704164 -0.22406924 -0.19737321 0.027991349 -0.43382767 -0.21016978
-0.2032796 0.55661047 -0.33986458 0.06315389 -0.0850179 -0.3341116 0.2816445 0.07484712
-0.4106844 0.1838969 0.2541637 -0.06709133 -0.1764511 0.44216713 -0.019824164 0.30243802
0.11067188 -0.17849886 0.006076312 -0.22852424 -0.0461337 -0.14732614 -0.35852954 -0.010728578
-0.5398113 -0.23655058 0.28164166 -0.3044789 0.20814262 0.17904218 -0.10423356 0.27885294
-0.2739111 0.5384459 -0.2324992 0.2738006 0.2040287 -0.44573006 0.27745458 -0.05377666
-0.40569514 0.013232521 -0.18353239 0.05947554 -0.10789624 0.31249842 0.4968603 0.034363043
0.24744028 0.2539371 -0.18036722 0.3828359 0.38227102 0.1418717 0.041772246 0.27928144
-0.110182665 0.35542664 0.13604836 -0.09842855 0.23860535 0.33676884 0.18422553 0.25197604
-0.6626473 -0.0792351 0.17072907 -0.08700882 0.09633784 -0.29481378 -0.2747412 0.12726313
-0.25141865 0.36343026 0.029063353 -0.016587831 -0.011940471 0.11509187 0.52278125 -0.13077971
0.07195466 0.40444148 0.58192176 0.23716462 0.057534907 0.29556492 -0.31796768 0.51954216
0.030368488 0.030818285 0.06457421 0.509754 0.0016914748 0.011227209 0.42671046 -0.0151609825
0.058388107 0.24556468 -0.08326728 0.08037299 0.481371 -0.0012366088 -0.023886248 -0.013730801
0.32264093 -0.22768365 0.44399276 0.16181868 0.30609444 -0.7542578 -0.08846126 0.012742732
-0.30858082 0.029498983 -0.39865467 -0.11683534 -0.1326005 -0.2588477 -0.6390827 -0.26463202
-0.31754676 -0.28419775 -0.06584009 -0.15054174 -0.30649927 -0.026221378 0.024990719 -0.74422765
0.26984861 0.21583027 -0.26965773 -0.15313493 0.070439585 0.04960929 0.08540398 0.18488601
-0.36936313 -0.3064837 -0.071139455 -0.34102896 0.0028580925 0.21828362 -0.009657176 -0.09411531
-0.13567309 0.68807983 0.20556132 -0.2853501 -0.06238758 0.059559703 -0.03447482 -0.0024255519
0.17849098 -0.16997138 -0.7885801 -0.087073475 -0.15017222 -0.40232518 0.23538178 -0.45262587
0.00554391 -0.078127235 -0.17241226 -0.5880201 -0.24318461 -0.038007498 -0.47100702 -0.20092444
-0.50706357 -0.0896634 0.22035024 -0.2967132 -0.33775255 0.40776137 -0.1416313 -0.16067034
-0.22122157 -0.45006967 -0.25857958 -0.07476455 -0.15310639 -0.34831902 0.16162565 0.07742971
-0.39449373 0.018998682 -0.45610613 0.04756362 0.09187069 -0.26988328 -0.61589336 -0.20963036
0.14282219 0.10216542 0.25903648 -0.36762992 -0.017282827 0.097030915 -0.13939567 0.50568646
-0.122416504 -0.14730008 0.36723897 -0.018317979 0.14822218 0.09752129 0.07250766 -0.09944769
0.2516578 0.17571443 0.2127987 0.25923136 -0.0008392253 0.4321879 0.14726858 -0.41439974
-0.03374038 0.452138 0.11691829 0.12650807 0.28860706 -0.0070364783 0.26426512 -0.13443333
0.035276923 0.13359259 0.52550304 -0.21991071 -0.47322387 -0.035292767 0.112996526 0.2602091
-0.0106749525 -0.019102642 0.5595576 -0.47093552 0.20138228 -0.13035455 0.08811806 -0.21285385
-0.37420878 -0.16084087 -0.14706758 -0.21542671 0.61029464 0.30177233 -0.025485372 0.1206347

net.0.bias f4 [64]
00000000: d8cb b93e 45ad 18bd 2ac0 9f3e 1ba8 67be
00000010: 7b47 833e 8494 fa3d ec8c 043f 28d9 623e
00000020: 5577 4a3e 98fd 503c 7a0c ef3e 1f85 093f
00000030: 1dc8 e93d 4cec 873e 71a7 a73e 1f51 7b3b
00000040: 684c e3bd 66e8 663e a8ad 8c3e 63cf 053e
00000050: 5285 823e a871 c5bc 79fa e03d 24d0 063f
00000060: cdc2 913e ac2f d53e b450 0fbe 8b83 be3d
00000070: 65d5 13be dcda 4a3d c2e1 89be 360d 4a3e
00000080: a3bf 0e3f 0e22 2a3e cd35 243d 60a7 003e
00000090: 4e68 bc3e 9564 75bd 39b8 0dbe 2478 c73e
000000a0: 2635 a43e 4b0e 463e 3700 ef3d 14e1 243e
000000b0: 2ae2 883e b26a d83e 2abe e6bd d28a f2bb
000000c0: b682 fb3e 942f ec3c 0962 df3c b584 c3bd
000000d0: 69b7 9d3e 3a5a 48bd bad2 e63e 8048 ae3e
000000e0: 1aac 3e3e d474 083f c2ad c93e 622f 12bd
000000f0: 5025 35be 3b87 cf3e e305 713e 7231 143e
0.36288333 -0.037274618 0.31201297 -0.22622721 0.25640473 0.12235358 0.5177753 0.22153151
0.19772084 0.012755774 0.46689206 0.5371875 0.11415122 0.26547468 0.32744935 0.0038347912
-0.11098558 0.2254959 0.2747624 0.13067393 0.2549234 -0.024102047 0.10985274 0.5266135
0.28468934 0.41637933 -0.1399563 0.093024336 -0.14436872 0.049525127 -0.26930052 0.19731602
0.55761164 0.16614553 0.04009037 0.12563848 0.36798328 -0.059910376 -0.13839807 0.38958848
0.320718 0.1934139 0.11669963 0.16101485 0.2673505 0.42268902 -0.1126674 -0.0074018026
0.49123162 0.02883128 0.027268426 -0.09546796 0.30803993 -0.04891417 0.45082647 0.34039688
0.18620339 0.53303266 0.3939038 -0.03568972 -0.17690015 0.4053286 0.23537402 0.14471987

net.2.weight f4 [32, 64]
00000000: 0950 68be 1dd9 8c3e 05b5 983e 267a 16be
00000010: 2ade 0e3e b616 1cbd 888c 2a3e 0af2 0f3e
00000020: 0be0 76be 6b46 813e fc41 913e e04f d33e
00000030: 2c24 953e 527c edbe 53da d7bd 5607 1abe
00000040: ad48 01bd 9eb9 a13e f3da a6be ba3f e9be
00000050: 8996 26be ea38 8cbe 1fce ddbc dabd 273e
00000060: 6cc6 4b3e 5fe9 b03d e238 803e 166a 48be
00000070: c96c 913e 7bc4 92be ea54 68be 3b19 8f3e
00000080: d5ac 8f3e e52c 23be 7d8d 383e 2c4c 1a3e
00000090: 015a 97be 18fa c43d 3cdf 18be 2a8f 85be
000000a0: 5f3c 163e bc21 d8be ff19 7b3e a8c4 3ebe
000000b0: 371d 1fbe 6511 af3e 693d 95bd cc32 2ebe
000000c0: cff1 463e 4063 8e3e 9f61 9b3c a738 9b3e
000000d0: eff6 a13e 6e47 91be a643 a13e 6ebb 833e
000000e0: 69cd 50be 10af c63e 9fb1 883e 3de6 af3e
000000f0: d348 343e b116 213e 4f99 163e addf 063e
00000100: 90c4 b3bd 2659 9b3b 6032 853d da09 b5bd
00000110: be09 073d 2ed6 863d 90ba 28bc 271a 3a3d
00000120: cae8 47bd 383f 8c3d 4166 66bc 9a86 89bc
00000130: e2f7 d7bd c867 af3d eba5 28bd e53e 633d
00000140: ac8c 1d3d f829 ba3d 5cda eebd c839 0f3d
00000150: ca29 d1bb d007 833c 23ff 0dbd 7bf0 8ebd
00000160: f3df a2ba 79d2 1bbd b9a3 613d bf2b c2bd
00000170: d17a 703d 1473 48bd ecd8 f4bc 178c 01be
00000180: d163 eebd cd2c 6fbb cbdb 9ebc 964b 973d
00000190: a784 babd 96e8 9a3d 1b5f debd fdf0 a7bd
000001a0: 2de2 0d3d 766a c1bd 6a21 49bd 8600 c43d
000001b0: 5314 1ebc 0d75 a2bd a336 08be 71f0 f6bd
000001c0: 1cb0 48bc 0cca d53c 4654 b9bb 970d d8bd
000001d0: 247d 04be d252 81bc 2930 3f3d 4748 3f3d
000001e0: d331 c13d 7dca 9a3d 08ee 17be bd1e dfbc
000001f0: 7fd7 b63d e63c dfbd faa2 d7bd 7d12 e6bd
00000200: 443c 7dbe 8d65 c43d c5ee ed3d 19ec b3bd
00000210: 0eb5 5f3e baf4 81bc 9d67 743e 482b 623e
00000220: 04dc 83be bc5e e73d 5e4b aa3e 8178 253e
00000230: 8e4d 683e 3ca8 debe db12 f7bd 75a3 f8bd
00000240: 4ea7 51bd 8501 593d c8b6 c8be 3d9d 8cbe
00000250: 2134 1bbe f9c7 0fbe e88e 91bd 93e0 983e
00000260: 5480 2b3e f965 8b3e e006 af3e 04ea c0bd
00000270: 2d2a 9e3e d51c 35be ff7b 9cbe d6e6 f83d
00000280: dbbb 563e e33a 3dbe e3dd 8b3e 3f5c 3f3e
00000290: 15ea 34be 4749 7a3e 5b48 22be 60cc c5be
000002a0: 01b5 503e 5c1b 6dbe 2707 673d d81a 54be
000002b0: 00d9 b2bc fd5b c53e 09f6 ffbc 948b 87be
000002c0: f857 623e bed2 b23d ace4 83bc e761 0d3e
000002d0: 9f69 963e 316f b5be 39b8 613e d531 2a3e
000002e0: 99b2 6fbe 1a45 b83e e892 bc3e ef75 5e3e
000002f0: 41ec 633e 2a7e 113e 3852 853e 08da aa3d
00000300: c04c 46be eae9 663e cc8e da3d ba5c d3bd
00000310: 61ca 163e a5cb df3c cfb9 7e3e 5a35 313e
00000320: 2633 b3be 1f93 3f3e 370f 473e 2840 be3e
00000330: 49bd 853e b35c a6be 9086 dfbd 2d84 9ebe
00000340: 77aa e0bd 9a41 5f3e 479f a2be 18a3 e5be
00000350: 2ab0 21be 5a5f 06be 616c 4abe 3fb6 b93e
00000360: d05e 863e 9507 1a3e 6bf3 8c3e 64be 19be
00000370: 1e2f ab3e 5698 bbbd cbd6 afbe 1f94 7d3e
00000380: f758 8b3e a055 3ebe 813c 4b3e 046c 703e
00000390: 88d8 7dbe 12c4 c43d c6b0 b2bd b060 88be
000003a0: 3ad4 e23d 53fe acbe 596b 693d ec03 6abd
000003b0: 5756 4cbe 655c a13e 95fa bebd 9a10 acbe
000003c0: 5bd7 b63e bf87 ca3d f8c4 1d3d 6472 953e
000003d0: 062b 2c3e 048d 8cbe e631 293e 792c a03e
000003e0: 89ca 46be 6e4f a93e 56f6 ae3e c5ca 193e
000003f0: 3f11 773e 744a bb3d 47b9 723e 9ad7 223e
-0.22686781 0.27509394 0.29825607 -0.14695033 0.13951936 -0.038107596 0.16655171 0.14057174
-0.24108903 0.25249037 0.28370655 0.41271877 0.2912916 -0.4638391 -0.10539689 -0.15041861
-0.03156345 0.31586927 -0.3258892 -0.45556432 -0.16268362 -0.27387172 -0.027075825 0.16381016
0.1989991 0.08638262 0.25043398 -0.19571719 0.2840331 -0.28665528 -0.22688642 0.27948937
0.28061548 -0.15935095 0.18022723 0.1506812 -0.29560855 0.09618014 -0.14928907 -0.26085788
0.14671467 -0.42213237 0.24521635 -0.18629706 -0.15538488 0.34192958 -0.07287104 -0.17011565
0.1942818 0.27810097 0.018967448 0.3031666 0.31633708 -0.2837481 0.31496924 0.25728935
-0.20390858 0.38805437 0.26698014 0.34355345 0.17605905 0.15731312 0.1470692 0.13171263
-0.08777726 0.004740852 0.06503749 -0.0883977 0.032968275 0.0658382 -0.010298386 0.045435097
-0.04880599 0.068479955 -0.014062465 -0.016787816 -0.10545327 0.085647166 -0.041173857 0.055479903
0.038464233 0.09090036 -0.116627425 0.034967214 -0.0063831555 0.015994936 -0.034667145 -0.06979462
-0.0012426361 -0.03804252 0.05508778 -0.09481 0.058710877 -0.048937872 -0.029888593 -0.12651096
-0.11640132 -0.003649521 -0.019391915 0.07387464 -0.09107333 0.075638935 -0.10857984 -0.08200262
0.034639526 -0.09444134 -0.04910413 0.09570412 -0.0096484 -0.07932482 -0.13302092 -0.12057579
-0.012249019 0.02609732 -0.005655798 -0.10549467 -0.12938362 -0.015786562 0.04667679 0.04669979
0.09433331 0.07558153 -0.14836895 -0.027236337 0.08927821 -0.10900287 -0.10529132 -0.11233995
-0.24730021 0.09589682 0.11617807 -0.087852664 0.2184641 -0.015863765 0.2386765 0.22086823
-0.25753796 0.11297366 0.33260626 0.1615925 0.22685835 -0.43487728 -0.12064143 -0.12140552
-0.051184945 0.052979965 -0.3920195 -0.27463713 -0.15156604 -0.14041127 -0.07107335 0.29858837
0.16748172 0.27226236 0.34184933 -0.09419635 0.30891553 -0.1768678 -0.30563352 0.121534035
0.20970099 -0.18479495 0.27317724 0.18687533 -0.1766742 0.24442016 -0.15847914 -0.38632488
0.20381548 -0.23154968 0.056403305 -0.20713365 -0.02183199 0.38546744 -0.031245248 -0.26473677
0.2210387 0.08731602 -0.01610025 0.13806878 0.29377457 -0.35436395 0.22042932 0.16620572
-0.23407973 0.3599022 0.3683083 0.21724676 0.22258092 0.14208284 0.2603929 0.083423674
-0.19365215 0.22550169 0.106717676 -0.103204206 0.14725639 0.027318785 0.24875568 0.17305508
-0.3499996 0.18708466 0.19439398 0.37158322 0.26120976 -0.324926 -0.10914338 -0.30960217
-0.109700136 0.21802369 -0.31762144 -0.44850993 -0.15789858 -0.13122311 -0.19767906 0.36271855
0.2624421 0.15041955 0.27529463 -0.15014035 0.33434385 -0.09159915 -0.34343562 0.24763535
0.27216312 -0.18587351 0.19847299 0.23478705 -0.24789631 0.0960771 -0.08725123 -0.26636267
0.11075635 -0.33787784 0.05698714 -0.057132646 -0.19954811 0.31515804 -0.093251385 -0.33606416
0.35711178 0.09889173 0.038517922 0.29188836 0.16813287 -0.27451336 0.16522941 0.3128393
-0.19413199 0.33068413 0.34172314 0.15018757 0.24127673 0.0914506 0.2370349 0.15902558

net.2.bias f4 [32]
00000000: 00ac c63d e32b 4abd 3d86 333e db2a 7b3d
00000010: 7719 463c ad3f e6bd 5066 d23d 6fa9 a43d
00000020: 2bf2 d63c 9072 8d3d 3fad b63d 43e3 11be
00000030: c736 6d3d 7206 563d 2c79 da3d da26 963d
00000040: 20a3 a73d c86b e9b9 555c ad3d 91e7 f03c
00000050: 6b67 ce3d 85e3 f9bb 967d 783d a2c0 34bd
00000060: d0d5 6a3e 8d52 a4bd 4cd5 493e 4469 c33d
00000070: c3a8 fdbd fb73 1c3e 2781 f93d 8288 0dbe
0.09700775 -0.04935826 0.17531677 0.061320167 0.012091032 -0.11242614 0.10273421 0.080401294
0.026238522 0.06906617 0.08919763 -0.1424685 0.057913568 0.05225224 0.10667643 0.07331629
0.081854105 -0.00044521526 0.084648766 0.029407294 0.10078319 -0.0076259994 0.060666643 -0.04412902
0.22933125 -0.08023558 0.19710273 0.09541562 -0.12385704 0.15278618 0.12182837 -0.13821605

net.4.weight f4 [1, 32]
00000000: 25b2 263f ef8d 19be 1d53 153f ebc7 513f
00000010: baa5 51bf 2100 4ebf 27e0 6d3f f594 35bf
00000020: f948 1bbf a8d2 41bf 35c5 3f3f db65 56bf
00000030: da14 45bf 7efc 483f d924 43bf 44fa 463f
00000040: 9f23 3e3f b9ff 0ebe ba43 5a3f 1f14 67bf
00000050: fd28 55bf 3466 1ebf f3b8 35bf 1128 60bf
00000060: b81a 3b3f 5f26 55bf 5658 103f 5a40 253f
00000070: fd06 12bf 08be 3b3f d998 423f c594 41bf
0.65115577 -0.1499555 0.58329946 0.81945676 -0.81893504 -0.80468947 0.92920154 -0.70930415
-0.6065822 -0.7571206 0.7491029 -0.8374917 -0.7698494 0.7851027 -0.762281 0.77725625
0.74273103 -0.13964738 0.8525959 -0.9026508 -0.8326567 -0.618747 -0.70985335 -0.87561136
0.73087645 -0.83261675 0.5638479 0.6455132 -0.57041913 0.7333684 0.76014477 -0.7561763
